tutorials/02-intermediate/convolutional_neural_network/model.ckpt (torch_old, 118956 bytes, 14 tensors)

layer1.0.weight f4 [16, 1, 5, 5]
0	0x3d7efbb7	0.062251773
1	0x3d8d6812	0.069046155
2	0x3d76ac49	0.060222898
3	0xbe0c109e	-0.13678214
4	0xbe45499f	-0.19266365
5	0x3c96e5ae	0.018420067
6	0x3d3a9399	0.045550916
7	0x3e5a4dc7	0.21318732
8	0x3e02d3fa	0.12776175
9	0xbe1d394a	-0.15353885
10	0x3c9b9e75	0.018996457
11	0xbe104397	-0.14088283
12	0x3e57afe9	0.21063198
13	0x3db2ea45	0.087360896
14	0xbe5a276b	-0.213041
15	0xbe21f7f4	-0.15817243
16	0xbe2a157c	-0.16609758
17	0xbe15d0bb	-0.14630406
18	0x3e576913	0.21036176
19	0x3caf4a7c	0.021397822
20	0x3cd079a7	0.025448633
21	0xbe144b57	-0.14481865
22	0xbc6c6a6a	-0.014429668
23	0x3d7669ff	0.06015968
24	0x3e03fad1	0.12888648
25	0x3d83390d	0.06407366
26	0x3e4eed74	0.20207769
27	0xbdf9793f	-0.12181329
28	0x3e46bd93	0.19408254
29	0x3db53ef3	0.08849897
30	0xbe462ef3	-0.19353847
31	0xbe6201ad	-0.22070952
32	0xbe68c478	-0.22731197
33	0xbe102acd	-0.14078827
34	0xbe2e3f7f	-0.1701641
35	0x3d030932	0.03199119
36	0x3dc2444b	0.09485682
37	0xbd9bc912	-0.076067105
38	0xbe7438c5	-0.23849781
39	0xbba10162	-0.004913495
40	0x3d7bf09b	0.061508756
41	0x3baa2fdf	0.005193695
42	0x3d89eaa5	0.06734208
43	0x3c19beeb	0.009383897
44	0xbdbb0119	-0.09131069
45	0x3cd58c55	0.026067892
46	0x3dd6dde5	0.10491542
47	0x3dad45ba	0.08460565
48	0x3e318118	0.17334402
49	0xbde8b808	-0.11363226
50	0x3a2a4392	0.0006495054
51	0x3e35f38b	0.17768686
52	0x3df96a8b	0.121785246
53	0x3e770db6	0.24126324
54	0x3e32109c	0.17389148
55	0x3dd24005	0.10266117
56	0x3c2e8ac8	0.010653205
57	0xbd7013ec	-0.05861275
58	0xbe205ea3	-0.15661101
59	0xbb85394d	-0.0040656687
60	0xbe604034	-0.21899492
61	0xbdfa5f0a	-0.122251585
62	0xbe67545e	-0.22590777
63	0xbdafe7de	-0.08589147
64	0xbdb3df3e	-0.087828144
65	0xbe1e8e74	-0.15484029
66	0xbe2fb44b	-0.1715862
67	0x3c6d3e08	0.014480121
68	0xbd9cbbcd	-0.07653008
69	0xbcdf711c	-0.027275614
70	0x3dd0aa97	0.101887874
71	0x3e082752	0.1329625
72	0x3d2c4c8e	0.042065196
73	0x3e0bd1a1	0.13654186
74	0xbc37b84f	-0.011213376
75	0xbcf1e4d0	-0.029528052
76	0xbc76ca62	-0.0150629
77	0x3e358150	0.1772511
78	0xbdfe1561	-0.124064215
79	0x3d831a8f	0.0640155
80	0xbca80ad6	-0.02051298
81	0x3e5038da	0.20334187
82	0x3d905cfb	0.070489846
83	0xbdd2ba4a	-0.10289438
84	0xbdfa7363	-0.122290395
85	0x3bc52890	0.0060167983
86	0x3e100a22	0.14066365
87	0xbe29edea	-0.16594663
88	0xbe53cbbd	-0.20683189
89	0x3d666ecc	0.056258008
90	0x3c0fbae7	0.008772588
91	0xbc39412c	-0.011307042
92	0xbc3719b3	-0.011175561
93	0xbda74356	-0.0816714
94	0xbc3ee031	-0.011650131
95	0x3e083aca	0.13303676
96	0xbda1b275	-0.07895366
97	0x3cd2216c	0.025650702
98	0xbce0ae9e	-0.027427014
99	0x3c28a501	0.010293246
100	0x3b18c1c3	0.002330885
101	0xbe1ccfd1	-0.1531365
102	0xbd96cf7a	-0.07363792
103	0xbbfceb36	-0.007718469
104	0x3e01b52c	0.12666768
105	0xbe3a1a10	-0.18174005
106	0xbb96193f	-0.0045806463
107	0x3e7a22b7	0.24427305
108	0x3e155109	0.14581694
109	0xbdc7687c	-0.09736726
110	0x3e148e6a	0.14507452
111	0x3e042d28	0.1290785
112	0x3d718c20	0.058971524
113	0xbe157935	-0.14597018
114	0xbe239161	-0.15973426
115	0x3b4aa035	0.0030918245
116	0xbd8f76e2	-0.07005097
117	0xbddd28a0	-0.10798764
118	0xbe1d13a3	-0.15339522
119	0xbcda66c6	-0.026660334
120	0xbc8b0d60	-0.016974151
121	0x3daa4690	0.0831424
122	0xbd901479	-0.07035155
123	0x3cb93694	0.022609033
124	0x3e30eefa	0.17278662
125	0xbdab1f09	-0.08355529
126	0xbdfc473c	-0.123182744
127	0xbe375d6e	-0.17906734
128	0xbde76538	-0.11298603
129	0x3e886cdc	0.26645553
130	0xbdfefd24	-0.124506265
131	0x3bc3f4b6	0.0059800996
132	0x3d89d9f4	0.067310244
133	0xbea05db7	-0.313215
134	0x3d6c2255	0.05764993
135	0x3e04ea69	0.12980045
136	0xbe1ad765	-0.15121229
137	0x3d69a901	0.05704594
138	0xbdb26c61	-0.08712078
139	0xbe1d58fb	-0.15365975
140	0x3e4ce00e	0.20007345
141	0x3d860d10	0.0654546
142	0x3b169598	0.0022977348
143	0xbdcb3627	-0.09922438
144	0xbd210b01	-0.039317135
145	0xbc9bedc6	-0.019034278
146	0xbd308f61	-0.043105487
147	0x3dd0bbe9	0.10192091
148	0xbce86a09	-0.028370874
149	0xbd87fd9e	-0.066401705
150	0x3d30a26a	0.04312364
151	0x3d76e080	0.060272694
152	0x3d38a0d4	0.045075253
153	0xbd861e50	-0.065487504
154	0x3dc46068	0.095887005
155	0x3e05a9e1	0.13053085
156	0xbdb82edc	-0.08993313
157	0x3d6a6704	0.05722715
158	0xbc75f81c	-0.015012767
159	0xbd8e91af	-0.06961381
160	0xbe04f978	-0.1298579
161	0x3e9b1ee6	0.3029701
162	0xbde013eb	-0.10941299
163	0xbe608a86	-0.21927842
164	0xbc915ec2	-0.01774538
165	0x3e3b0b9e	0.1826615
166	0x3e04d250	0.12970853
167	0xbdc3344d	-0.0953146
168	0xbe263bbd	-0.16233726
169	0xbe6c351e	-0.23067138
170	0x3e2822d3	0.16419534
171	0x3e0f92de	0.14020869
172	0xbe6ae495	-0.2293876
173	0xbe1d7920	-0.15378237
174	0xbda51243	-0.08060124
175	0xbe911e60	-0.28343487
176	0x3db94209	0.09045798
177	0x3d278053	0.040893864
178	0xbd034611	-0.032049242
179	0x3d605482	0.054768093
180	0xbdf451b7	-0.11929648
181	0xbe961186	-0.29310244
182	0xbe225fac	-0.15856808
183	0xbd785361	-0.06062639
184	0xbe3df19d	-0.185492
185	0x3e13e9f7	0.1444472
186	0xbd5fd8d6	-0.05465015
187	0xbdbc4ce2	-0.09194352
188	0xbdb167b2	-0.086623564
189	0xbe163344	-0.14667994
190	0xbded9d75	-0.11602298
191	0x3dd86dfc	0.10567853
192	0xbd1429e5	-0.036172766
193	0x3d0d9faa	0.034576096
194	0x3dfe86c4	0.12428048
195	0xbd647480	-0.055775166
196	0x3d8ab4e7	0.06772786
197	0x3e25e688	0.16201222
198	0xbceb389d	-0.028713519
199	0x3d9128f2	0.07087888
200	0xbd82d8b3	-0.06388988
201	0x3d5fae5a	0.054609634
202	0xbde6524b	-0.11246165
203	0x3d2c3b3b	0.042048674
204	0x3e424c9a	0.18974534
205	0xbd37e9c2	-0.044900663
206	0xbae5a2d7	-0.0017519844
207	0xbe750f14	-0.23931533
208	0x3d6cf0b5	0.057846744
209	0x3e3cfa64	0.18454891
210	0xbcae1355	-0.021249453
211	0xbe5b1439	-0.21394433
212	0xbda3f4ba	-0.08005662
213	0xbe368a96	-0.17826304
214	0x3d596c06	0.053081535
215	0xbdf448d7	-0.119279556
216	0xbc3b3818	-0.011426948
217	0xbe0439d1	-0.1291268
218	0xbdbc1747	-0.09184127
219	0x3e2036bb	0.15645878
220	0xbe26af4d	-0.1627781
221	0xbdc3541c	-0.09537527
222	0x3d49ae92	0.04923875
223	0x3ddfb8f3	0.10923948
224	0x3dbb84e2	0.09156205
225	0x3de996f6	0.11405747
226	0x3dab231d	0.08356307
227	0x3d98b8b7	0.074571066
228	0x3d6bc7c4	0.05756356
229	0xbcc6a48d	-0.024248386
230	0xbd7a16af	-0.06105679
231	0xbd472e29	-0.048628006
232	0x3e0a8bab	0.13529842
233	0xbe06f9e1	-0.13181259
234	0xbe50d8c5	-0.20395191
235	0x3e31bac6	0.17356405
236	0x3d7d5306	0.061846755
237	0xbe266bac	-0.16252011
238	0xbe7bc20b	-0.2458574
239	0xbcdae595	-0.026720801
240	0xbdd2b24f	-0.10287916
241	0xbe2050ea	-0.15655866
242	0xbdd59b74	-0.10430041
243	0xbd6cf836	-0.0578539
244	0x3dfac2c9	0.122441836
245	0xbe2b4c46	-0.16728315
246	0xbd10b7ed	-0.035331655
247	0xbe2b8106	-0.16748437
248	0x3e004977	0.12528025
249	0xbd606fd7	-0.05479416
250	0x3dddacef	0.10824
251	0x3bc51412	0.0060143555
252	0xbe4f4495	-0.20241006
253	0xbd0174e1	-0.031605605
254	0xbdd323dc	-0.10309574
255	0x3b297c29	0.0025861359

layer1.0.bias f4 [16]
0	0xbd5b2fbf	-0.05351233
1	0x3c988019	0.01861577
2	0xbb29038c	-0.0025789468
3	0xbd6d73ff	-0.05797195
4	0xbe2a4ea4	-0.16631562
5	0x3d9402f0	0.07227123
6	0xbe2cc2ad	-0.16871138
7	0xbd87d70d	-0.066328146
8	0xbdc3fa30	-0.09569204
9	0x3d9724dd	0.07380078
10	0x3d8cfdb9	0.06884331
11	0x3ddb315e	0.107027754
12	0x3dda98b6	0.106736585
13	0x3e1057de	0.14096019
14	0xbd06c951	-0.032906834
15	0xbe7d0268	-0.24707949

layer1.1.weight f4 [16]
0	0x3f798e67	0.97482914
1	0x3f7bb335	0.98320323
2	0x3f84dc7d	1.0379788
3	0x3f5b181c	0.85583663
4	0x3f7f8b52	0.9982196
5	0x3f97f0d9	1.1870376
6	0x3f651c7b	0.8949658
7	0x3f8a4bac	1.0804343
8	0x3f80f15a	1.0073655
9	0x3f9e6812	1.237551
10	0x3f52b500	0.82307434
11	0x3f433458	0.76251745
12	0x3f9837b7	1.1892003
13	0x3f79efa9	0.9763132
14	0x3f7b0937	0.98060936
15	0x3f65e5ed	0.89803964

layer1.1.bias f4 [16]
0	0xbe7eedc3	-0.24895386
1	0xbd92c00a	-0.07165535
2	0xbe48db6b	-0.19614951
3	0xbe57bf7c	-0.21069139
4	0xbe58a00f	-0.21154808
5	0xbe4864df	-0.1956973
6	0xbe7add44	-0.24498469
7	0xbe6ed741	-0.233243
8	0xbe3021f9	-0.1720046
9	0xbe37e89a	-0.17959824
10	0xbe70db80	-0.23521233
11	0xbeb270b6	-0.34851617
12	0xbe81ac92	-0.25326973
13	0xbe04fc43	-0.12986855
14	0xbe325d6d	-0.17418452
15	0xbdf88be2	-0.121360555

layer1.1.running_mean f4 [16]
0	0xbd901a76	-0.07036297
1	0xbcee9ff4	-0.029129006
2	0xbc81d87b	-0.015850296
3	0xbd9a0b05	-0.07521633
4	0xbe3bcda5	-0.18340166
5	0xbc0f56f1	-0.008748756
6	0xbe588831	-0.21145703
7	0xbe307507	-0.17232142
8	0xbe332c27	-0.17497312
9	0xbd0c9927	-0.034325745
10	0x3d4de401	0.05026627
11	0x3e082ac5	0.13297565
12	0xbc4755cc	-0.012166452
13	0x3d703245	0.05864169
14	0xbd9dee64	-0.07711485
15	0xbe869acf	-0.26289985

layer1.1.running_var f4 [16]
0	0x3cb82f88	0.022483602
1	0x3d0a9b12	0.033839293
2	0x3d1dad45	0.03849532
3	0x3caa933b	0.020822158
4	0x3c5fb7c0	0.013654649
5	0x3d1773f5	0.03697582
6	0x3da6be00	0.081417084
7	0x3d734266	0.059389494
8	0x3d9826f8	0.07429308
9	0x3d8c1fc2	0.06841995
10	0x3ca9353f	0.020655273
11	0x3d6186ce	0.0550602
12	0x3da1adf3	0.07894506
13	0x3d2db752	0.042411156
14	0x3dd04b83	0.10170653
15	0x3d10b489	0.03532842

layer2.0.weight f4 [32, 16, 5, 5]
0	0xbd05d42c	-0.032673046
1	0xbb3c1de6	-0.0028704344
2	0xbc618305	-0.013764148
3	0xbd8b1005	-0.06790165
4	0xbdb65b5e	-0.08904146
5	0x3d968988	0.07350451
6	0x3c87b91b	0.016567757
7	0xbd8bac55	-0.06819979
8	0xbd64cbe6	-0.055858515
9	0xbd81097d	-0.06300638
10	0xbd712219	-0.05887041
11	0xbdb0f9c2	-0.086413875
12	0xbda1db5c	-0.079031676
13	0xbd106fc3	-0.035262834
14	0xbd728d90	-0.059217036
15	0x3a0e6db3	0.00054332166
16	0xbc4122f7	-0.011788121
17	0xbd4e7863	-0.05040778
18	0xbd228613	-0.039678644
19	0xbd0137a6	-0.03154721
20	0xbc9b4959	-0.018955873
21	0xbda9bf8b	-0.08288487
22	0xbd070228	-0.03296104
23	0xbd5211db	-0.05128656
24	0xbde3d1ba	-0.111239865
25	0xbd243d9d	-0.04009782
26	0xba4cbf99	-0.00078105327
27	0xbd4cfde2	-0.05004681
28	0x3cdc7e53	0.026915705
29	0xbd0cb28d	-0.034349967
30	0x3d0dede9	0.034650717
31	0x3a4f9f3d	0.00079201517
32	0xbb3e3953	-0.0029025867
33	0x3caccab1	0.021092745
34	0x3c14f19a	0.009090805
35	0x3df141e3	0.11780145
36	0x3da68425	0.08130673
37	0x3c858437	0.016298397
38	0xbac94d17	-0.0015358058
39	0xbd54966e	-0.051901273
40	0x3d47c93a	0.04877589
41	0x3c0b8be3	0.008517238
42	0xbd4aed4a	-0.049542703
43	0x3bf19f45	0.0073737227
44	0xbde2f348	-0.110815585
45	0x3d55b5ad	0.052175213
46	0xbd20305a	-0.03910861
47	0xbdcc778a	-0.09983738
48	0x3b12d37f	0.0022403894
49	0xbd8f4290	-0.06995118
50	0xbd0ad6c3	-0.03389622
51	0xbc87b2e8	-0.016564801
52	0xbcd821e5	-0.02638335
53	0xbd71fd73	-0.0590796
54	0xbd383f64	-0.04498233
55	0x3c78cabb	0.015185053
56	0x3d3c0fb1	0.045913402
57	0x3ce92e02	0.028464321
58	0x3d4f0775	0.05054422
59	0xbd6ed603	-0.058309566
60	0x3c9a289a	0.018818188
61	0x3cc5a005	0.024124155
62	0x3daa59cc	0.08317909
63	0xbc4c7296	-0.012478491
64	0xbdea174c	-0.11430225
65	0x3d4d1742	0.05007101
66	0x3d456286	0.048189662
67	0x3bc74562	0.006081269
68	0xbe13eb04	-0.1444512
69	0xbdd83280	-0.10556507
70	0x3dbc8e1d	0.092067935
71	0x3c0423e9	0.008065202
72	0xbdfcd555	-0.12345377
73	0xbd4d6361	-0.050143603
74	0xbdae6243	-0.08514836
75	0x3d03d3ee	0.032184534
76	0x3d913784	0.07090667
77	0x3d867921	0.06566072
78	0xbd8e2cec	-0.06942162
79	0xbd983ca8	-0.07433444
80	0x3d290392	0.04126317
81	0x3cc9b9be	0.024624702
82	0x3cc50efc	0.024054997
83	0x3ce867f9	0.02836989
84	0xbc4a13e0	-0.01233384
85	0xbc8c1d4d	-0.017103815
86	0xbdb705c7	-0.08936649
87	0xbcb0271c	-0.021503024
88	0x3c94f461	0.018182935
89	0x3d71723a	0.058946826
90	0xbd86663e	-0.0656247
91	0xbdb77de7	-0.08959561
92	0xbb43a741	-0.002985433
93	0x3d69caab	0.057078045
94	0x3dbfe5e5	0.09370021
95	0xbcda8b8b	-0.026677867
96	0xbd4ca545	-0.0499623
97	0x3ad7a81e	0.0016453301
98	0x3c924d38	0.017859086
99	0x3c9b6251	0.01896778
100	0xbcf576b1	-0.029963823
101	0x3d0ec948	0.034859926
102	0xbc951ec3	-0.018203145
103	0xbd7f700c	-0.062362716
104	0xbc99a11a	-0.018753577
105	0xbcc6e490	-0.024278909
106	0xbc39ef45	-0.01134855
107	0x3d225672	0.039633222
108	0x3c5aaf61	0.013347478
109	0xbd2bc80b	-0.041938823
110	0xbdaf9b33	-0.08574524
111	0x3c9735e7	0.01845832
112	0xbca0bc7b	-0.019621124
113	0x3a847087	0.0010104337
114	0x3b87062d	0.0041206093
115	0xbcb4bc8f	-0.022062568
116	0x3d10cf7f	0.035354134
117	0xbd986efe	-0.07443045
118	0xbc8e1b27	-0.017346932
119	0xbbd66089	-0.0065422696
120	0xbc0c24cf	-0.008553698
121	0xbcb8c594	-0.02255515
122	0xbce6d784	-0.028178938
123	0xbc46f871	-0.012144194
124	0xbd85402d	-0.06506381
125	0xbda9027b	-0.08252426
126	0xbcee3124	-0.029076166
127	0xbb06c6bd	-0.0020565235
128	0xbd09b826	-0.033622883
129	0x3caad61b	0.020854047
130	0xbc726581	-0.014794708
131	0xbcdc23de	-0.026872572
132	0xbd7301c6	-0.059327863
133	0xbc9461d8	-0.018113062
134	0x3d219d7f	0.03945684
135	0xbd4043cd	-0.04693966
136	0xbda18fec	-0.07888779
137	0xbda8801d	-0.08227561
138	0x3bb770ae	0.0055981493
139	0xbb5d447f	-0.003376275
140	0xbd9d6dd0	-0.07686961
141	0xbd129ed5	-0.035796005
142	0xbd77e3b6	-0.060519896
143	0x3d516c3f	0.051128622
144	0x3d00f4a9	0.031483326
145	0xbcb71ad8	-0.022351667
146	0xbcbd8f8d	-0.02313974
147	0xbcc1da47	-0.023663653
148	0x3c8cd737	0.017192466
149	0x3b9b035f	0.0047306265
150	0x3ce30124	0.027710505
151	0xbcdb3483	-0.026758438
152	0x3c45edb6	0.0120806005
153	0x3d138409	0.03601459
154	0xbd24c366	-0.04022541
155	0xbcbb7dff	-0.022887228
156	0xbd681956	-0.056664787
157	0xbd939cfc	-0.07207677
158	0x3bcae73e	0.006192117
159	0xbc3bf628	-0.011472262
160	0xbd79c643	-0.060980093
161	0xbd6d17fe	-0.05788421
162	0x3d4d1019	0.05006418
163	0x3d2cdec1	0.042204622
164	0x3db51d94	0.08843532
165	0xbcd0651e	-0.025438841
166	0x3a83b61c	0.001004878
167	0x3dbd3623	0.092388414
168	0x3dc3ef9c	0.09567186
169	0x3db335af	0.08750474
170	0xbcaef213	-0.021355664
171	0x3da15d03	0.07879069
172	0x3c8fc347	0.01754917
173	0x3d2298c2	0.039696462
174	0x3d4dc987	0.05024102
175	0xbd72af7e	-0.059249394
176	0xbca38dee	-0.019965138
177	0x3cf1b949	0.029507296
178	0x3c2d8744	0.010591332
179	0xbcb145fe	-0.02163982
180	0x3dc223c5	0.09479479
181	0x3d850ff8	0.064971864
182	0xbbe79877	-0.007067736
183	0xbd85abcd	-0.06526909
184	0x3cf4b669	0.029872136
185	0x3d75af55	0.059981663
186	0x3d1aaf73	0.037764978
187	0x3b1f1c99	0.002427852
188	0xba95161d	-0.0011374388
189	0xbd0d065b	-0.03442989
190	0x3d1e3d61	0.038632754
191	0x3d7fc915	0.062447626
192	0x39e226a7	0.00043134877
193	0x3ce30b5e	0.027715381
194	0xbc7274e3	-0.014798376
195	0x3df1a559	0.11799116
196	0x3d4aedf3	0.049543332
197	0xbd059b1c	-0.032618627
198	0xbcc8232a	-0.02443083
199	0xbd7cc114	-0.06170757
200	0x3b46322a	0.0030242302
201	0x3d5ec1e5	0.05438413
202	0x3d2dacad	0.042401005
203	0x3cc8b68d	0.02450111
204	0x3c04e9a1	0.008112342
205	0x3cc4a198	0.024002835
206	0xbdaec144	-0.08532956
207	0x3ba1aaf0	0.0049337074
208	0xbcd9569a	-0.026530553
209	0xbb14746d	-0.0022652403
210	0xbc1e3269	-0.009655573
211	0xbb10f414	-0.0022118138
212	0xbc0ff310	-0.008785978
213	0xbc0d870a	-0.008638153
214	0x3c9b7fe1	0.018981876
215	0xbc09508c	-0.00838102
216	0x3d62a694	0.055334643
217	0x3de1e1bc	0.110293835
218	0x3da0e41a	0.07856007
219	0x3d0ad1b0	0.03389138
220	0x3d4b0156	0.04956182
221	0x3dc32536	0.09528582
222	0x3e483061	0.19549705
223	0x3d8e89f7	0.069599085
224	0x3d0534df	0.032521125
225	0xbd044ea7	-0.03230157
226	0x3dd7aeeb	0.1053141
227	0x3d54ac98	0.05192241
228	0x3d7ebdbf	0.062192675
229	0xbc9e9ab9	-0.019360887
230	0x3cb12029	0.02162178
231	0x3dd854e7	0.10563069
232	0x3def4ead	0.11684928
233	0x3b55c516	0.0032618693
234	0x3ca6d944	0.020367272
235	0xbc515c4e	-0.012778355
236	0x3df630ff	0.12021064
237	0x3e00a355	0.12562306
238	0xbd5940f3	-0.053040456
239	0x3bbd5cc9	0.005778883
240	0x3d576dd3	0.05259497
241	0x3bd7986c	0.0065794494
242	0x3c7e3887	0.015516407
243	0x3ca66634	0.020312406
244	0xbc87c107	-0.016571535
245	0x3e02c99c	0.1277222
246	0x3d0c65e7	0.03427687
247	0x3cdd39fa	0.027005184
248	0x3d104eaa	0.03523127
249	0x3d4f3813	0.050590586
250	0xbc872175	-0.016495446
251	0xbc3362d2	-0.010948854
252	0x3cfc4f2c	0.03079947
253	0x3cd20d8f	0.02564123
254	0x3d1bdce3	0.03805245
255	0xbd09f5f0	-0.03368181

layer2.0.bias f4 [32]
0	0xbbba3f46	-0.0056838123
1	0x3ae6ec9f	0.0017618126
2	0x3cbea563	0.023272222
3	0xbbdb6415	-0.0066952803
4	0x3bc458b7	0.005992021
5	0x3cdcc0aa	0.026947338
6	0x3d1e2c21	0.038616303
7	0xbb346ff4	-0.002753255
8	0x3c5f0d07	0.013613946
9	0xbaad0aff	-0.001320213
10	0x3c981592	0.018564973
11	0x3c9b20a1	0.018936457
12	0xbca8381a	-0.020534564
13	0x3c2a1384	0.010380629
14	0x3cd59464	0.026071735
15	0xbb599634	-0.00332011
16	0x3d5a4610	0.053289473
17	0x3d0d2e9b	0.034468275
18	0xbd5a9cab	-0.053372066
19	0xbb754d95	-0.0037430276
20	0xbd2ef094	-0.042709902
21	0xbcaabaea	-0.02084108
22	0x3d053c96	0.032528482
23	0x3ccd0b4e	0.025029805
24	0xbd1a4f25	-0.037673134
25	0x3d022847	0.031776693
26	0xbd227c44	-0.03966929
27	0xbc1799f1	-0.009253011
28	0x3d1095ab	0.035298984
29	0xbac4e329	-0.0015021312
30	0x3bdef7ed	0.0068044574
31	0xbc554755	-0.013017495

layer2.1.weight f4 [32]
0	0x3f942968	1.1575136
1	0x3f8e06b5	1.1095797
2	0x3f935360	1.1509819
3	0x3f8bb2fe	1.0913999
4	0x3f94886d	1.1604134
5	0x3f97dcf5	1.1864306
6	0x3f8d1e2a	1.102483
7	0x3f9122c5	1.1338736
8	0x3f902cb9	1.1263648
9	0x3f91eddf	1.1400717
10	0x3f8ffbf5	1.1248766
11	0x3f95c17b	1.169967
12	0x3f965817	1.1745633
13	0x3f964581	1.1739961
14	0x3f9f9527	1.2467393
15	0x3f8254ef	1.018217
16	0x3f8baa99	1.0911437
17	0x3f8fe352	1.1241248
18	0x3f90e9b7	1.1321324
19	0x3f8cbb68	1.0994692
20	0x3f8dbdd0	1.1073551
21	0x3f87e96f	1.0618113
22	0x3fa2e958	1.2727461
23	0x3f90c4f8	1.131011
24	0x3f9235e7	1.14227
25	0x3f994ebb	1.1977152
26	0x3f945367	1.1587952
27	0x3f921e05	1.1415411
28	0x3f97c359	1.185649
29	0x3f93acb8	1.1537085
30	0x3f8cafe0	1.0991173
31	0x3f91bc16	1.1385524

layer2.1.bias f4 [32]
0	0xbd662e1a	-0.05619631
1	0xbe3e52fa	-0.1858634
2	0xbdd576bb	-0.10423037
3	0xbe2ac672	-0.16677263
4	0xbdaf0d2a	-0.08547433
5	0xbe1ac1a6	-0.15112934
6	0xbdc1e8fd	-0.09468267
7	0xbdaf8cb4	-0.08571759
8	0xbe0c006d	-0.13672037
9	0xbe11fc3b	-0.14256375
10	0xbe7c3401	-0.24629213
11	0xbddf8b82	-0.10915281
12	0xbd009ca8	-0.0313994
13	0xbd61957b	-0.055074196
14	0xbe776479	-0.24159421
15	0xbe631c6e	-0.22178814
16	0xbe34ce23	-0.1765676
17	0xbe717f8a	-0.23583809
18	0xbe0167c2	-0.12637237
19	0xbe1cd3b3	-0.15315132
20	0xbe2848d0	-0.16434026
21	0xbd910dc2	-0.07082702
22	0xbe31f7df	-0.17379712
23	0xbe2f2e4b	-0.17107503
24	0xbda9c2fd	-0.08289144
25	0xbd869956	-0.06572215
26	0xbe32577c	-0.17416185
27	0xbe201dba	-0.1563634
28	0xbdc44f6c	-0.09585461
29	0xbdb9f88b	-0.09080609
30	0xbe010ed2	-0.1260331
31	0xbe14996b	-0.1451165

layer2.1.running_mean f4 [32]
0	0xbc02924f	-0.007969453
1	0xbe727da6	-0.23680744
2	0xbef995b9	-0.48747042
3	0x3ddf5094	0.10904041
4	0xbe5d99d6	-0.21640715
5	0xbe723869	-0.23654331
6	0x3d426c72	0.047466703
7	0x3f98e597	1.1945065
8	0x3e679d65	0.22618635
9	0x3e0ca856	0.1373609
10	0xbe5a42d5	-0.21314557
11	0xbe349e5b	-0.17638533
12	0x3f4498d2	0.76795685
13	0x3f0aac91	0.54169565
14	0x3f2cd145	0.6750682
15	0xbea6bcf6	-0.3256604
16	0x3e8c46f9	0.27397898
17	0xbecc78fe	-0.3993606
18	0xbe911d4e	-0.2834267
19	0x3d88d621	0.06681467
20	0xbead8c85	-0.3389627
21	0xbe80dcbe	-0.25168413
22	0xbef31f5e	-0.4748487
23	0xbf510333	-0.81645507
24	0xbebf6b71	-0.3738666
25	0xbea03d4c	-0.31296766
26	0xbe8f9125	-0.28040424
27	0x3d862559	0.06550092
28	0x3ef8b34e	0.485743
29	0xbe1c1e92	-0.15246037
30	0xbeacc1fc	-0.33741748
31	0xbe8ed18e	-0.27894253

layer2.1.running_var f4 [32]
0	0x3f82eb25	1.022801
1	0x3f32fbc5	0.6991542
2	0x3f61ff4f	0.88280195
3	0x3f40d4d9	0.7532478
4	0x3f56d7cf	0.8392305
5	0x3f21babb	0.63175553
6	0x3f64048f	0.89069456
7	0x3f4b2b1f	0.7936267
8	0x3f441f39	0.7661014
9	0x3f308c82	0.689644
10	0x3f204626	0.6260704
11	0x3f702a34	0.93814397
12	0x3f2e2e42	0.68039334
13	0x3f7bbaaa	0.983317
14	0x3f6563dd	0.89605504
15	0x3f1fd16e	0.6242894
16	0x3f2e2065	0.6801818
17	0x3f27fc8e	0.6561974
18	0x3f5285e3	0.82235545
19	0x3f2958be	0.66151035
20	0x3f4010b4	0.75025487
21	0x3f33dfac	0.7026317
22	0x3f546bee	0.8297719
23	0x3f291478	0.6604686
24	0x3f482838	0.7818637
25	0x3f53451c	0.8252733
26	0x3f152ac3	0.58268374
27	0x3f3e8ad9	0.74430615
28	0x3f4394af	0.7639875
29	0x3f5be699	0.8589874
30	0x3f5cb3b8	0.8621173
31	0x3f1ac7e8	0.6046128

fc.weight f4 [10, 1568]
0	0xbd0b7e8d	-0.034056235
1	0xbd1bd993	-0.03804929
2	0xbcf0de30	-0.029402822
3	0xbd12e9a2	-0.03586734
4	0xbd3b00d0	-0.04565507
5	0xb95484d4	-0.00020267378
6	0xbb498813	-0.0030751273
7	0x3c4f41a1	0.0126499245
8	0x3ce2f0ac	0.027702652
9	0xbb4ca41e	-0.003122575
10	0x3b4cc936	0.003124786
11	0xbde3b62e	-0.111187324
12	0xbb6a2c42	-0.0035731946
13	0xbbcacc22	-0.0061888853
14	0x37bb0638	2.2295033e-05
15	0x3c6bd24a	0.014393399
16	0x3d91d803	0.07121279
17	0xbd7ec335	-0.062197883
18	0xbd3c81ab	-0.0460221
19	0x3c706375	0.01467215
20	0xbd1f1c79	-0.038845513
21	0x3bcbb1e1	0.006216273
22	0x3d810559	0.06299848
23	0x3dfdc7db	0.12391635
24	0xbdfe375f	-0.12412905
25	0xbd178b5e	-0.036998145
26	0xbd6d5475	-0.057941873
27	0xbcac119c	-0.02100449
28	0x3ce560c5	0.028000245
29	0x3d9e3593	0.07725062
30	0xbe031e2a	-0.12804475
31	0xbe1f9078	-0.15582454
32	0xbdc4d2e3	-0.09610536
33	0x3d0c21e5	0.03421201
34	0x3d5d15f1	0.053976003
35	0xbcb39ba3	-0.0219248
36	0xbc352258	-0.0110555515
37	0xbd5701f4	-0.052492097
38	0xbdb7772c	-0.08958277
39	0x3d70a889	0.058754478
40	0x3d29675c	0.041358337
41	0x3c8089e0	0.015690744
42	0x3cda8331	0.026673885
43	0xbd215696	-0.039389215
44	0xbd3d9915	-0.04628857
45	0xbd28e12b	-0.041230362
46	0x3c55a81e	0.013040571
47	0xbca82a64	-0.020528026
48	0xbc770cdf	-0.015078752
49	0x3c76e24e	0.015068604
50	0xbcd8616a	-0.026413638
51	0x3987d718	0.00025909464
52	0x3bc9c061	0.0061569666
53	0x3c3e91ae	0.011631412
54	0x3c3ce604	0.011529449
55	0x3cb48852	0.022037659
56	0x3c823f2f	0.015899269
57	0xbd3ec8d4	-0.046578243
58	0x3cb4f9c8	0.022091761
59	0x3cdd4b1a	0.02701335
60	0xbd7e58bc	-0.062096342
61	0x3c1f6335	0.009728243
62	0x3cc98e1a	0.024603892
63	0x3c6caec8	0.014445968
64	0x3d3bac59	0.04581866
65	0x3d235514	0.03987606
66	0x3d23bb55	0.039973576
67	0xba35ebfd	-0.0006939767
68	0xbcc0a062	-0.023513976
69	0x3d04756d	0.03233855
70	0x3d5ad16a	0.05342237
71	0xbc1f4e0d	-0.009723199
72	0xbd1e67ba	-0.03867314
73	0x3d561165	0.052262682
74	0x3d9a2103	0.07525828
75	0xbb9f5942	-0.0048629353
76	0xbc27d4fe	-0.010243652
77	0x3cd34da2	0.025793854
78	0xbc2a9777	-0.010412089
79	0xbc165790	-0.00917615
80	0xba4a09aa	-0.00077071285
81	0x3d4b2712	0.049597807
82	0xbb5dc3ab	-0.003383855
83	0xbc94ff06	-0.01818801
84	0x3d2b8224	0.04187216
85	0x3d366d26	0.044537686
86	0x3d92eebd	0.07174442
87	0xbd659140	-0.056046724
88	0xbdd9af05	-0.106290855
89	0xbd960f8f	-0.07327186
90	0xbd09d6d6	-0.03365215
91	0x3d617ad5	0.055048782
92	0x3d28f5cd	0.04125004
93	0x3cc11d00	0.023573399
94	0xbe617228	-0.22016203
95	0xbdfaa0f7	-0.12237733
96	0xbcb0a901	-0.021564962
97	0x3ccef767	0.025264455
98	0xbcc20fef	-0.023689238
99	0xbd9ab4d3	-0.07554021
100	0x3d0ca1c6	0.034333967
101	0xbd0738f8	-0.033013314
102	0x3cb7e6a5	0.022448847
103	0x3c223ae3	0.009901735
104	0x3bed912f	0.0072499732
105	0x3c95ea2f	0.018300144
106	0x3d7a03bd	0.06103872
107	0xbd4a4d08	-0.04938987
108	0x3d718ef8	0.058974236
109	0xbca635c2	-0.020289306
110	0x3c93c1e1	0.018036785
111	0xbd3e249a	-0.046421625
112	0xbcc14302	-0.023591522
113	0x3d6af972	0.057366796
114	0x3c177751	0.009244756
115	0xbb8132ae	-0.003942809
116	0xbd06151d	-0.03273498
117	0xbde5dd61	-0.11223865
118	0xbd206c86	-0.039165996
119	0x3d22d4da	0.039753772
120	0x3cd0fba9	0.025510626
121	0xbc1ea560	-0.009682983
122	0x3887fd82	6.484521e-05
123	0xbd8fbfa4	-0.070189744
124	0x3bcd5da4	0.0062672663
125	0x3db09bc3	0.08623459
126	0x3cb2522a	0.021767695
127	0x3c4d3bd3	0.01252647
128	0xbd92aa22	-0.071613565
129	0x3c161e0c	0.009162437
130	0x3d4cae5d	0.049970973
131	0xbc07b170	-0.0082820505
132	0x3ba1eed7	0.004941802
133	0x3c9d1b42	0.019178037
134	0xbcdb9561	-0.026804628
135	0xbd132edc	-0.03593336
136	0x3d0d31c8	0.034471303
137	0x3d4a032f	0.049319442
138	0x3baf8fd7	0.005357723
139	0x3cad378e	0.021144655
140	0x3caa14df	0.020761905
141	0xbd02ddd4	-0.031949833
142	0xbda0f066	-0.07858352
143	0xbd30990f	-0.043114718
144	0xbda84af4	-0.08217421
145	0xbda87a1f	-0.08226418
146	0xbd86a43e	-0.065742955
147	0xbd5f1cee	-0.05447095
148	0x3ca6adda	0.02034657
149	0xbc771168	-0.015079834
150	0xbc1018e6	-0.008794999
151	0x3b077156	0.0020666919
152	0x3cafd141	0.021462085
153	0x3c663da4	0.014052782
154	0xbada94a7	-0.0016676382
155	0x3cb69e16	0.022292178
156	0xbc85ba28	-0.016324118
157	0xbb85f30c	-0.0040878113
158	0x3aeef4f4	0.0018230961
159	0xbca7a9f4	-0.020466782
160	0xbcbd0b91	-0.023076804
161	0xbbc3377c	-0.005957542
162	0xbd511a2d	-0.051050354
163	0xbda6f142	-0.08151485
164	0xbddf9aa2	-0.10918166
165	0xbde84a3a	-0.113422826
166	0xbd9b3dee	-0.075801715
167	0xbd1a962b	-0.037740868
168	0xbc88478e	-0.016635682
169	0xbcefc9a9	-0.029270964
170	0xbc66d7b4	-0.014089514
171	0xbca89f9f	-0.020583926
172	0x3c00c687	0.007859833
173	0x3d8dd7d7	0.06925934
174	0xbc6f4052	-0.0146027375
175	0xbd12efdc	-0.03587328
176	0xbd4efebe	-0.05053591
177	0xbd3035a8	-0.04301992
178	0x3c2db52b	0.010602276
179	0xbd169f19	-0.03677282
180	0x3c594f62	0.013263555
181	0x3c5f2a49	0.013620921
182	0xbcefb281	-0.029259922
183	0xbb2a44be	-0.0025980915
184	0x3ba453f7	0.005014892
185	0x3c086b4d	0.008326364
186	0x3cb1fb69	0.021726327
187	0x3b6cb291	0.0036117176
188	0x3c34a3fc	0.011025425
189	0xbd34e96c	-0.04416792
190	0x3c710f30	0.014713094
191	0x3d60a6dc	0.05484663
192	0x3da70fe0	0.08157325
193	0xbc8be22b	-0.017075619
194	0xbc85d88a	-0.016338605
195	0xbd8b3cae	-0.06798683
196	0xbc1950c4	-0.009357635
197	0xbd77e85e	-0.060524337
198	0xbc8fd775	-0.017558793
199	0x3d59eede	0.053206317
200	0xba171eff	-0.00057648116
201	0xbd86f5ca	-0.06589849
202	0xbc2d0f8b	-0.010562788
203	0xbc28dc7b	-0.010306473
204	0xbcf6fd08	-0.030149952
205	0x3cf6fba8	0.030149296
206	0xbd11b823	-0.035575997
207	0x3d11d97e	0.035607807
208	0xbd9c85ce	-0.07642709
209	0xbc27c86a	-0.0102406535
210	0x3af4ce9a	0.0018677295
211	0x3cdd1326	0.02698667
212	0x3c90b110	0.017662555
213	0x3d9a086b	0.07521137
214	0x3d0ebefb	0.034850102
215	0x3d2e4c8d	0.042553473
216	0x3d0bcb3a	0.03412936
217	0x3c14c3b3	0.009079861
218	0x3cdd5429	0.02701767
219	0xbc529f13	-0.012855309
220	0x3ce7894e	0.028263714
221	0x3d0b294d	0.033974934
222	0x3c7c002d	0.015380901
223	0x3ccf23ae	0.025285568
224	0x3d88a687	0.066723876
225	0xbc67cbcf	-0.014147713
226	0x3d3a9765	0.045554537
227	0x3d935f8a	0.07195957
228	0xbd0a6595	-0.033788282
229	0x3c9a625b	0.018845728
230	0x3cc3b75f	0.02389115
231	0xbba5de89	-0.0050619286
232	0x3c8f1b31	0.01746902
233	0xbba4fee5	-0.0050352686
234	0xbd03f13d	-0.032212485
235	0xbdb3a6d3	-0.087720536
236	0xbc937f99	-0.01800518
237	0x3cf31aef	0.029675929
238	0x3c27222f	0.010201021
239	0x3d975f2a	0.07391198
240	0x3d8b5dc3	0.06804993
241	0xbd9fe41b	-0.078071795
242	0xbd928707	-0.07154661
243	0xbd823090	-0.06356919
244	0x3abe2f9f	0.0014510042
245	0x3d1f42d1	0.03888208
246	0xbd48de4a	-0.049040116
247	0xbac0418c	-0.0014667972
248	0xbc9a85dc	-0.018862657
249	0xbc0c9a21	-0.008581669
250	0xbc61df70	-0.013786182
251	0x3c1ca29b	0.009560253
252	0x3c7b3d37	0.015334419
253	0xbd627ed0	-0.05529672
254	0xbc5b6dc3	-0.013392868
255	0xbcaf7a3d	-0.021420592

fc.bias f4 [10]
0	0xb9829fdd	-0.0002491464
1	0x3cff3607	0.031153692
2	0x3cada94a	0.021198887
3	0xbc96d012	-0.018409763
4	0xbca10177	-0.019654019
5	0xb980ae74	-0.0002454404
6	0x3c9a03d6	0.018800657
7	0x3ce99f2a	0.028518278
8	0xbb031f02	-0.0020007496
9	0x3c957561	0.018244447
